…
 [[ 1.99909858]
  [-1.33068728]
  [ 0.66602499]
  [ 2.66273657]
  [-1.99297264]]

 ...

 [[ 0.78865005]
  [-0.78817217]
  [-0.5257667 ]
  [ 0.5259793 ]
  [ 0.        ]]

 [[-0.78817217]
  [-0.5257667 ]
  [ 0.5259793 ]
  [ 0.        ]
  [-0.26288335]]

 [[-0.5257667 ]
  [ 0.5259793 ]
  [ 0.        ]
  [-0.26288335]
  [-0.26293649]]]
may:  74664    menor:  75192   neutro:  817123
_________________________________________________________________
Layer (type)                 Output Shape              Param #   
=================================================================
lstm_1 (LSTM)                (None, 5, 128)            66560     
_________________________________________________________________
lstm_2 (LSTM)                (None, 5, 128)            131584    
_________________________________________________________________
lstm_3 (LSTM)                (None, 5, 128)            131584    
_________________________________________________________________
lstm_4 (LSTM)                (None, 5, 128)            131584    
_________________________________________________________________
lstm_5 (LSTM)                (None, 128)               131584    
_________________________________________________________________
dropout_1 (Dropout)          (None, 128)               0         
_________________________________________________________________
dense_1 (Dense)              (None, 3)                 387       
=================================================================
Total params: 593,283
Trainable params: 593,283
Non-trainable params: 0
_________________________________________________________________
None
Epoch 1/800
 - 56s - loss: 2.5746 - class_1_accuracy: 0.1633
Epoch 2/800
 - 52s - loss: 2.5398 - class_1_accuracy: 0.1607
Epoch 3/800
 - 52s - loss: 2.5375 - class_1_accuracy: 0.1594
Epoch 4/800
…
