Importing and creating CSV DataFrame...
Creating train/test split of data...
No pkl file to delete
may:  100483    menor:  100657   neutro:  661254
_________________________________________________________________
Layer (type)                 Output Shape              Param #   
=================================================================
reshape_1 (Reshape)          (None, 10, 1, 1)          0         
_________________________________________________________________
conv2d_1 (Conv2D)            (None, 10, 1, 64)         256       
_________________________________________________________________
activation_1 (Activation)    (None, 10, 1, 64)         0         
_________________________________________________________________
conv2d_2 (Conv2D)            (None, 10, 1, 64)         12352     
_________________________________________________________________
activation_2 (Activation)    (None, 10, 1, 64)         0         
_________________________________________________________________
reshape_2 (Reshape)          (None, 10, 64)            0         
_________________________________________________________________
lstm_1 (LSTM)                (None, 10, 128)           98816     
_________________________________________________________________
lstm_2 (LSTM)                (None, 10, 128)           131584    
_________________________________________________________________
lstm_3 (LSTM)                (None, 10, 128)           131584    
_________________________________________________________________
lstm_4 (LSTM)                (None, 10, 128)           131584    
_________________________________________________________________
dropout_1 (Dropout)          (None, 10, 128)           0         
_________________________________________________________________
time_distributed_1 (TimeDist (None, 10, 3)             387       
_________________________________________________________________
activation_3 (Activation)    (None, 10, 3)             0         
_________________________________________________________________
lambda_1 (Lambda)            (None, 3)                 0         
=================================================================
Total params: 506,563
Trainable params: 506,563
Non-trainable params: 0
_________________________________________________________________
None
Epoch 1/800
 - 197s - loss: 2.5515 - class_1_accuracy: 0.1573
Epoch 2/800
 - 74s - loss: 2.4867 - class_1_accuracy: 0.1576
Epoch 3/800
 - 74s - loss: 2.4845 - class_1_accuracy: 0.1580
…
