Importing and creating CSV DataFrame...
Creating train/test split of data...
No pkl file to delete
may:  72598    menor:  72889   neutro:  728297
_________________________________________________________________
Layer (type)                 Output Shape              Param #   
=================================================================
lstm_1 (LSTM)                (None, 5, 128)            66560     
_________________________________________________________________
lstm_2 (LSTM)                (None, 5, 128)            131584    
_________________________________________________________________
lstm_3 (LSTM)                (None, 5, 128)            131584    
_________________________________________________________________
lstm_4 (LSTM)                (None, 5, 128)            131584    
_________________________________________________________________
lstm_5 (LSTM)                (None, 5, 128)            131584    
_________________________________________________________________
lstm_6 (LSTM)                (None, 5, 128)            131584    
_________________________________________________________________
lstm_7 (LSTM)                (None, 5, 128)            131584    
_________________________________________________________________
lstm_8 (LSTM)                (None, 5, 128)            131584    
_________________________________________________________________
lstm_9 (LSTM)                (None, 5, 128)            131584    
_________________________________________________________________
dropout_1 (Dropout)          (None, 5, 128)            0         
_________________________________________________________________
time_distributed_1 (TimeDist (None, 5, 3)              387       
_________________________________________________________________
activation_1 (Activation)    (None, 5, 3)              0         
_________________________________________________________________
lambda_1 (Lambda)            (None, 3)                 0         
=================================================================
Total params: 1,119,619
Trainable params: 1,119,619
Non-trainable params: 0
_________________________________________________________________
None
Epoch 1/800
 - 157s - loss: 2.6185 - class_1_accuracy: 0.1363
Epoch 2/800
 - 83s - loss: 2.5304 - class_1_accuracy: 0.1637
Epoch 3/800
 - 83s - loss: 2.5286 - class_1_accuracy: 0.1662
…
