…
 [[ 1.99909858]
  [-1.33068728]
  [ 0.66602499]
  [ 2.66273657]
  [-1.99297264]]

 ...

 [[ 0.        ]
  [ 0.30533963]
  [ 0.        ]
  [-0.30526797]
  [ 0.30533963]]

 [[ 0.30533963]
  [ 0.        ]
  [-0.30526797]
  [ 0.30533963]
  [-0.30526797]]

 [[ 0.        ]
  [-0.30526797]
  [ 0.30533963]
  [-0.30526797]
  [-0.30533963]]]
may:  72598    menor:  72889   neutro:  728297
_________________________________________________________________
Layer (type)                 Output Shape              Param #   
=================================================================
lstm_1 (LSTM)                (None, 5, 128)            66560     
_________________________________________________________________
lstm_2 (LSTM)                (None, 5, 128)            131584    
_________________________________________________________________
lstm_3 (LSTM)                (None, 5, 128)            131584    
_________________________________________________________________
lstm_4 (LSTM)                (None, 5, 128)            131584    
_________________________________________________________________
lstm_5 (LSTM)                (None, 128)               131584    
_________________________________________________________________
dropout_1 (Dropout)          (None, 128)               0         
_________________________________________________________________
dense_1 (Dense)              (None, 3)                 387       
=================================================================
Total params: 593,283
Trainable params: 593,283
Non-trainable params: 0
_________________________________________________________________
None
Epoch 1/800
 - 115s - loss: 11.4192 - class_1_accuracy: 0.1662
Epoch 2/800
 - 46s - loss: 2.9296 - class_1_accuracy: 0.1692
Epoch 3/800
 - 46s - loss: 2.9216 - class_1_accuracy: 0.1686
…
