Importing and creating CSV DataFrame...
Creating train/test split of data...
No pkl file to delete
may:  97151    menor:  97366   neutro:  667877
_________________________________________________________________
Layer (type)                 Output Shape              Param #   
=================================================================
lstm_1 (LSTM)                (None, 10, 128)           66560     
_________________________________________________________________
lstm_2 (LSTM)                (None, 10, 128)           131584    
_________________________________________________________________
lstm_3 (LSTM)                (None, 10, 128)           131584    
_________________________________________________________________
lstm_4 (LSTM)                (None, 10, 128)           131584    
_________________________________________________________________
lstm_5 (LSTM)                (None, 10, 128)           131584    
_________________________________________________________________
dropout_1 (Dropout)          (None, 10, 128)           0         
_________________________________________________________________
time_distributed_1 (TimeDist (None, 10, 3)             387       
_________________________________________________________________
activation_1 (Activation)    (None, 10, 3)             0         
_________________________________________________________________
lambda_1 (Lambda)            (None, 3)                 0         
=================================================================
Total params: 593,283
Trainable params: 593,283
Non-trainable params: 0
_________________________________________________________________
None
Epoch 1/800
 - 90s - loss: 2.4046 - class_1_accuracy: 0.1970
Epoch 2/800
 - 86s - loss: 2.3830 - class_1_accuracy: 0.1947
Epoch 3/800
 - 86s - loss: 2.3810 - class_1_accuracy: 0.1958
…
